…
------------------------------------------------------+\n"]}],"source":["!nvidia-smi"]},{"cell_type":"markdown","metadata":{"id":"hXvlWZeVpXfX"},"source":["## Train\n","this will download the data on first run and may take a while. \n","\n","If you have Comet.ml setup, you can start seeing your progress in the comet cell above."]},{"cell_type":"code","execution_count":null,"metadata":{"id":"XZodve8PGKfS","colab":{"base_uri":"https://localhost:8080/"},"outputId":"e0145892-8062-404d-9040-3d78df7bd1ad"},"outputs":[{"output_type":"stream","name":"stdout","text":["SpeechRecognitionModel(\n","  (cnn): Conv2d(1, 32, kernel_size=(3, 3), stride=(2, 2), padding=(1, 1))\n","  (rescnn_layers): Sequential(\n","    (0): ResidualCNN(\n","      (cnn1): Conv2d(32, 32, kernel_size=(3, 3), stride=(1, 1), padding=(1, 1))\n","      (cnn2): Conv2d(32, 32, kernel_size=(3, 3), stride=(1, 1), padding=(1, 1))\n","      (dropout1): Dropout(p=0.1, inplace=False)\n","      (dropout2): Dropout(p=0.1, inplace=False)\n","      (layer_norm1): CNNLayerNorm(\n","        (layer_norm): LayerNorm((64,), eps=1e-05, elementwise_affine=True)\n","      )\n","      (layer_norm2): CNNLayerNorm(\n","        (layer_norm): LayerNorm((64,), eps=1e-05, elementwise_affine=True)\n","      )\n","    )\n","    (1): ResidualCNN(\n","      (cnn1): Conv2d(32, 32, kernel_size=(3, 3), stride=(1, 1), padding=(1, 1))\n","      (cnn2): Conv2d(32, 32, kernel_size=(3, 3), stride=(1, 1), padding=(1, 1))\n","      (dropout1): Dropout(p=0.1, inplace=False)\n","      (dropout2): Dropout(p=0.1, inplace=False)\n","      (layer_norm1): CNNLayerNorm(\n","        (layer_norm): LayerNorm((64,), eps=1e-05, elementwise_affine=True)\n","      )\n","      (layer_norm2): CNNLayerNorm(\n","        (layer_norm): LayerNorm((64,), eps=1e-05, elementwise_affine=True)\n","      )\n","    )\n","    (2): ResidualCNN(\n","      (cnn1): Conv2d(32, 32, kernel_size=(3, 3), stride=(1, 1), padding=(1, 1))\n","      (cnn2): Conv2d(32, 32, kernel_size=(3, 3), stride=(1, 1), padding=(1, 1))\n","      (dropout1): Dropout(p=0.1, inplace=False)\n","      (dropout2): Dropout(p=0.1, inplace=False)\n","      (layer_norm1): CNNLayerNorm(\n","        (layer_norm): LayerNorm((64,), eps=1e-05, elementwise_affine=True)\n","      )\n","      (layer_norm2): CNNLayerNorm(\n","        (layer_norm): LayerNorm((64,), eps=1e-05, elementwise_affine=True)\n","      )\n","    )\n","  )\n","  (fully_connected): Linear(in_features=2048, out_features=512, bias=True)\n","  (birnn_layers): Sequential(\n","    (0): BidirectionalGRU(\n","      (BiGRU): GRU(512, 512, batch_first=True, bidirectional=True)\n","      (layer_norm): LayerNorm((512,), eps=1e-05, elementwise_affine=True)\n","      (dropout): Dropout(p=0.1, inplace=False)\n","    )\n","    (1): BidirectionalGRU(\n","      (BiGRU): GRU(1024, 512, bidirectional=True)\n","      (layer_norm): LayerNorm((1024,), eps=1e-05, elementwise_affine=True)\n","      (dropout): Dropout(p=0.1, inplace=False)\n","    )\n","    (2): BidirectionalGRU(\n","      (BiGRU): GRU(1024, 512, bidirectional=True)\n","      (layer_norm): LayerNorm((1024,), eps=1e-05, elementwise_affine=True)\n","      (dropout): Dropout(p=0.1, inplace=False)\n","    )\n","    (3): BidirectionalGRU(\n","      (BiGRU): GRU(1024, 512, bidirectional=True)\n","      (layer_norm): LayerNorm((1024,), eps=1e-05, elementwise_affine=True)\n","      (dropout): Dropout(p=0.1, inplace=False)\n","    )\n","    (4): BidirectionalGRU(\n","      (BiGRU): GRU(1024, 512, bidirectional=True)\n","      (layer_norm): LayerNorm((1024,), eps=1e-05, elementwise_affine=True)\n","      (dropout): Dropout(p=0.1, inplace=False)\n","    )\n","  )\n","  (classifier): Sequential(\n","    (0): Linear(in_features=1024, out_features=512, bias=True)\n","    (1): GELU()\n","    (2): Dropout(p=0.1, inplace=False)\n","    (3): Linear(in_features=512, out_features=29, bias=True)\n","  )\n",")\n","Num Model Parameters 23705373\n"]},{"output_type":"stream","name":"stderr","text":["/usr/local/lib/python3.7/dist-packages/torch/optim/lr_scheduler.py:1582: UserWarning: To get the last learning rate computed by the scheduler, please use `get_last_lr()`.\n","  \"please use `get_last_lr()`.\", UserWarning)\n"]},{"output_type":"stream","
…
ain Epoch: 1 [21000/28539 (74%)]\tLoss: 2.040003\n","Train Epoch: 1 [22000/28539 (77%)]\tLoss: 1.738248\n","Train Epoch: 1 [23000/28539 (81%)]\tLoss: 1.823515\n","Train Epoch: 1 [24000/28539 (84%)]\tLoss: 1.824224\n","Train Epoch: 1 [25000/28539 (88%)]\tLoss: 1.703818\n","Train Epoch: 1 [26000/28539 (91%)]\tLoss: 1.561440\n","Train Epoch: 1 [27000/28539 (95%)]\tLoss: 1.632050\n","Train Epoch: 1 [28000/28539 (98%)]\tLoss: 1.615148\n","\n","evaluating...\n","Test set: Average loss: 1.4216, Average CER: 0.421679 Average WER: 0.9492\n","\n","Our model: \n","\n"," SpeechRecognitionModel(\n","  (cnn): Conv2d(1, 32, kernel_size=(3, 3), stride=(2, 2), padding=(1, 1))\n","  (rescnn_layers): Sequential(\n","    (0): ResidualCNN(\n","      (cnn1): Conv2d(32, 32, kernel_size=(3, 3), stride=(1, 1), padding=(1, 1))\n","      (cnn2): Conv2d(32, 32, kernel_size=(3, 3), stride=(1, 1), padding=(1, 1))\n","      (dropout1): Dropout(p=0.1, inplace=False)\n","      (dropout2): Dropout(p=0.1, inplace=False)\n","      (layer_norm1): CNNLayerNorm(\n","        (layer_norm): LayerNorm((64,), eps=1e-05, elementwise_affine=True)\n","      )\n","      (layer_norm2): CNNLayerNorm(\n","        (layer_norm): LayerNorm((64,), eps=1e-05, elementwise_affine=True)\n","      )\n","    )\n","    (1): ResidualCNN(\n","      (cnn1): Conv2d(32, 32, kernel_size=(3, 3), stride=(1, 1), padding=(1, 1))\n","      (cnn2): Conv2d(32, 32, kernel_size=(3, 3), stride=(1, 1), padding=(1, 1))\n","      (dropout1): Dropout(p=0.1, inplace=False)\n","      (dropout2): Dropout(p=0.1, inplace=False)\n","      (layer_norm1): CNNLayerNorm(\n","        (layer_norm): LayerNorm((64,), eps=1e-05, elementwise_affine=True)\n","      )\n","      (layer_norm2): CNNLayerNorm(\n","        (layer_norm): LayerNorm((64,), eps=1e-05, elementwise_affine=True)\n","      )\n","    )\n","    (2): ResidualCNN(\n","      (cnn1): Conv2d(32, 32, kernel_size=(3, 3), stride=(1, 1), padding=(1, 1))\n","      (cnn2): Conv2d(32, 32, kernel_size=(3, 3), stride=(1, 1), padding=(1, 1))\n","      (dropout1): Dropout(p=0.1, inplace=False)\n","      (dropout2): Dropout(p=0.1, inplace=False)\n","      (layer_norm1): CNNLayerNorm(\n","        (layer_norm): LayerNorm((64,), eps=1e-05, elementwise_affine=True)\n","      )\n","      (layer_norm2): CNNLayerNorm(\n","        (layer_norm): LayerNorm((64,), eps=1e-05, elementwise_affine=True)\n","      )\n","    )\n","  )\n","  (fully_connected): Linear(in_features=2048, out_features=512, bias=True)\n","  (birnn_layers): Sequential(\n","    (0): BidirectionalGRU(\n","      (BiGRU): GRU(512, 512, batch_first=True, bidirectional=True)\n","      (layer_norm): LayerNorm((512,), eps=1e-05, elementwise_affine=True)\n","      (dropout): Dropout(p=0.1, inplace=False)\n","    )\n","    (1): BidirectionalGRU(\n","      (BiGRU): GRU(1024, 512, bidirectional=True)\n","      (layer_norm): LayerNorm((1024,), eps=1e-05, elementwise_affine=True)\n","      (dropout): Dropout(p=0.1, inplace=False)\n","    )\n","    (2): BidirectionalGRU(\n","      (BiGRU): GRU(1024, 512, bidirectional=True)\n","      (layer_norm): LayerNorm((1024,), eps=1e-05, elementwise_affine=True)\n","      (dropout): Dropout(p=0.1, inplace=False)\n","    )\n","    (3): BidirectionalGRU(\n","      (BiGRU): GRU(1024, 512, bidirectional=True)\n","      (layer_norm): LayerNorm((1024,), eps=1e-05, elementwise_affine=True)\n","      (dropout): Dropout(p=0.1, inplace=False)\n","    )\n","    (4): BidirectionalGRU(\n","      (BiGRU): GRU(1024, 512, bidirectional=True)\n","      (layer_norm): LayerNorm((1024,), eps=1e-05, elementwise_affine=True)\n","      (dropout): Dropout(p=0.1, inplace=False)\n","    )\n","  )\n","  (classifier): Sequential(\n","    (0): Linear(in_features=1024, out_features=512, bias=True)\n","    (1): GELU()\n","    (2): Dropout(p=0.1, inplace=False)\n","    (3): Linear(in_features=512, out_features=29, bias=True)\n","  )\n",") \n","\n","The state dict keys: \n","\n"," odict_keys(['cnn.weight', 'cnn.bias', 'rescnn_layers.0.cnn1.weight', 'rescnn_layers.0.cnn1.bias', 'rescnn_layers.0.cnn2.weight', 'rescnn_layers.0.cnn2.bias', 'rescnn_layers.0.layer_norm1.layer_norm.weight', 'rescnn_layers.0.layer_norm1.layer_norm.bias', 'rescnn_layers.0.layer_norm2.layer_norm.weigh
…
